model/model_first_order.pth (torch, 2208 bytes, 3 tensors)

hidden_layer.weight f4 [10, 1]
000000 c2 21 1e 3e de de c7 3e 1b 86 32 3f bc 82 e8 be
       0.15442565 0.39037222 0.6973588 -0.45412242
000010 6b c5 ad be 29 11 a4 3e ea 51 d5 3f 14 a1 24 40
       -0.3393968 0.32044342 1.6665623 2.5723314
000020 39 04 3c 3f ac 72 d4 3e
       0.73443943 0.41493738

hidden_layer.bias f4 [10]
000000 06 98 21 3f b9 b5 a1 be c6 3a 7e be 3e 37 00 3f
       0.63122594 -0.31583956 -0.24827108 0.5008429
000010 4d 87 74 be 97 a9 26 3c 30 09 93 bf 5c a4 86 c0
       -0.23879738 0.010172269 -1.1487179 -4.2075634
000020 f5 a7 83 bf ea ca 6c 3f
       -1.0285631 0.9249712

output_layer.weight f4 [1, 10]
000000 90 b6 84 3f e7 b1 8c be 30 99 64 bf 3b b9 87 bf
       1.0368214 -0.2747948 -0.89296246 -1.0603403
000010 c2 35 f3 be e3 4b bd bf 09 98 f1 3f 72 9c 95 40
       -0.4750195 -1.4788784 1.8874522 4.6753473
000020 c8 9d 10 40 7c cb d7 3e
       2.2596302 0.42147434
