model/model_second_order.pth (torch, 2216 bytes, 3 tensors)

hidden_layer.weight f4 [10, 1]
000000 c9 11 9d 3f 65 2f c9 3f 41 4a e0 3f 67 a8 84 bf
       1.2271053 1.5717589 1.752266 -1.0363892
000010 40 bf 8b be 44 41 90 3f 67 9a 27 bf 5d 52 b2 3d
       -0.2729435 1.1269917 -0.65469974 0.08707116
000020 a5 c8 38 be cb f4 40 be
       -0.1804529 -0.18843381

hidden_layer.bias f4 [10]
000000 30 95 7d c0 ac 1a 22 40 bb a9 17 40 e3 7d 49 bf
       -3.9622307 2.532878 2.3697345 -0.7870771
000010 b7 ba 87 3f 56 09 15 c0 5e 63 68 bf b6 51 0f bf
       1.0603856 -2.3286948 -0.9077662 -0.55984056
000020 cb fa 93 3e 8e 36 61 3e
       0.28902277 0.21993467

output_layer.weight f4 [1, 10]
000000 ec 53 74 c0 64 a6 c1 c0 21 88 c8 40 f1 a7 31 c0
       -3.8176222 -6.0515614 6.2666173 -2.7758753
000010 8f 5e 07 3f 6b 51 3f c0 dc 2a 18 bf 03 2d 4d bd
       0.5287866 -2.9893444 -0.594404 -0.050091755
000020 52 00 50 3e 0f f6 88 3e
       0.20312622 0.26750228
