model/model.pth (torch, 2112 bytes, 3 tensors)

hidden_layer.weight f4 [10, 1]
0	0x3fe66bc6	1.800164
1	0xbe20c9ed	-0.15702029
2	0x3ed9e388	0.42556405
3	0x401835ef	2.3782918
4	0xbfa424fc	-1.2823787
5	0xbedfd751	-0.4371896
6	0x3f7bac0e	0.9830941
7	0x3e64d6d6	0.22347578
8	0x3f2254bd	0.6341055
9	0xbe20919e	-0.15680549

hidden_layer.bias f4 [10]
0	0xc0484575	-3.1292393
1	0x3edabdf2	0.42723042
2	0xbf1f3dd5	-0.62203723
3	0xc093bd9e	-4.6168966
4	0xbfec76fe	-1.8473814
5	0x3e003415	0.12519868
6	0xbf697887	-0.91199535
7	0xbf6a3285	-0.91483337
8	0xbf67df73	-0.9057533
9	0xbef66e26	-0.48130912

output_layer.weight f4 [1, 10]
0	0x40437e7f	3.0545957
1	0x3e896f43	0.26842698
2	0x3fafd8d7	1.3738049
3	0x408021e1	4.0041356
4	0x3fc54e1f	1.5414466
5	0xbf800e55	-1.0004374
6	0x3fe3204a	1.7744229
7	0x3fd2bdbb	1.6464151
8	0x3fdf7c0a	1.7459729
9	0xbf394da5	-0.723841
